deep_learning/GAN/MNIST_label/model/Discriminator.pt (torch, 640535 bytes, 5 tensors)

model.0.weight f4 [200, 794]
0.09577971 0.08438797 0.089160345 0.11004362 0.13193129 0.09728223 0.13586363 0.074103154
0.11805707 0.06258275 0.06516185 0.12633418 -0.007073038 0.02623101 0.052145064 0.010665932
0.108419985 0.106139205 0.051130354 0.07410038 0.09626694 0.11489706 0.06875412 0.05668221
0.13116826 0.13433851 0.111287855 0.10510149 0.09187865 0.05875044 0.091795556 0.08969592
0.062563844 0.025396112 0.04917372 -0.0069364565 -0.021725815 -0.034306455 -0.10197731 -0.11705818
-0.16960917 -0.106850356 -0.11198134 -0.021489648 -0.08488729 -0.033352192 -0.023115637 0.0051218783
-0.010863478 0.006838421 0.012736817 0.034365192 0.06094352 0.10450625 0.12879111 0.10843981
0.11336682 0.061005283 0.016815972 0.006735959 0.050970417 -0.102607384 0.0014484634 -0.00116947
0.040954005 -0.08032859 -0.10145931 0.038360003 -0.0021199335 -0.08353069 -0.11103022 -0.08360432
-0.08027604 -0.010818999 -0.052055825 -0.12553082 0.02774254 -0.038580004 -0.09345411 -0.11455873
-0.044432346 -0.0011391091 0.080591135 0.05731206 0.1178293 0.1041612 -0.020051425 0.06488725
0.011004524 -0.099464566 -0.15990892 -0.02467218 -0.044930045 0.107996956 -0.024213132 -0.14789255
-0.23867795 -0.25270653 -0.25892037 -0.08190866 -0.14585583 -0.39001334 -0.3245544 -0.17143022
-0.21407714 -0.27886215 -0.28752553 -0.3319962 -0.19217552 -0.01397894 0.030983841 0.056426376
0.093695834 0.05578732 0.055441808 0.013337255 -0.12106471 -0.036601864 -0.11673734 -0.005069319
0.11057786 0.08694908 0.10369198 0.17252405 0.011217153 -0.050931703 -0.054453637 -0.04529738
-0.07090535 0.06072248 0.055678725 0.13280483 0.14757518 0.14956827 0.16113287 -0.023073576
0.01980304 0.014136574 0.0607806 0.05415169 0.1043947 0.11563991 -0.11794564 -0.1304865
-0.13213101 -0.10097928 -0.026477493 -0.010228511 0.0008806491 -0.041428506 0.111297995 -0.036313824
0.0060555576 0.08122492 -0.024910461 -0.014808046 -0.25039878 -0.1238813 -0.099066675 -0.029375577
0.07324778 0.06914949 0.07819641 -0.16207595 -0.056195475 -0.10299234 -0.14046532 0.039274164
0.0587371 -0.007549723 -0.007676302 -0.08021529 -0.15253396 -0.013400367 -0.043729637 -0.101672806
-0.07726219 0.089916274 0.10821019 0.1569892 0.11348874 -0.015358662 -0.025184676 -0.013851086
-0.043785904 -0.051588323 0.06627745 0.15987706 0.20040324 0.16716807 -0.13212521 -0.16994695
-0.098646715 -0.09553789 -0.0479938 0.018584153 0.019719215 0.20561306 -0.041993815 -0.05589561
-0.016193911 0.05483465 -0.041414917 -0.05071331 -0.11923426 -0.05356652 0.082831256 -0.013145114
0.015672559 0.04195647 0.04057457 0.049487002 -0.23845795 -0.12897564 0.10204195 0.08684315
0.014121199 -0.0905221 -0.36102134 -0.374522 -0.3518252 0.054337684 0.0071819215 0.14167808
0.037638143 -0.072808795 -0.06576958 -0.15622914 -0.05785216 0.11336184 -0.012285932 -0.03833124
-0.08672107 0.01841311 0.0150434 -0.008005214 0.04282676 -0.07010453 -0.07537305 -0.038257048
-0.14615554 0.029911127 0.10934712 -0.0015984396 -0.03369284 -0.15602253 -0.41149542 -0.11228094
-0.17288053 0.078532405 -0.058097087 -0.021464545 -0.030773308 -0.08873443 -0.062173836 -0.01320909
00000000: 2728 c43d 9ad3 ac3d b399 b63d 8d5e e13d
00000010: ff18 073e e83b c73d d61f 0b3e 65c3 973d
00000020: e8c7 f13d 632b 803d 9373 853d bf5d 013e
00000030: f1c4 e7bb 6ae2 d63c 1096 553d 29c0 2e3c
00000040: 4c0b de3d 835f d93d 106e 513d f1c1 973d
00000050: 9a27 c53d 264f eb3d f6ce 8c3d 9b2b 683d
00000060: f950 063e 0990 093e e3ea e33d 733f d73d
00000070: e02a bc3d 4da4 703d 4fff bb3d 7fb2 b73d
00000080: 7921 803d 820b d03c 626a 493d 374b e3bb
00000090: 56fa b1bc ed84 0cbd 7bd9 d0bd 33bc efbd
000000a0: 07ae 2dbe 5cd4 dabd 7956 e5bd 0f0b b0bc
000000b0: 63d9 adbd 4f9c 08bd 015d bdbc 6ed5 a73b
000000c0: bbfc 31bc d514 e03b 15ae 503c 84c2 0c3d
000000d0: ea9f 793d 5f07 d63d d1e1 033e b115 de3d
000000e0: dd2c e83d ade0 793d a6c1 893c 52b9 dc3b
000000f0: 5bc6 503d d223 d2bd 5eda bd3a e748 99ba
00000100: 63bf 273d 5183 a4bd e6c9 cfbd 611f 1d3d
00000110: 95ee 0abb 2312 abbd d063 e3bd be38 abbd
00000120: c467 a4bd 2c42 31bc 7d38 55bd 278b 00be
00000130: 5344 e33c 1106 1ebd de64 bfbd c49d eabd
00000140: b1fe 35bd 294e 95ba f70c a53d 0dc0 6a3d
00000150: 7d50 f13d 7852 d53d e342 a4bc 9be3 843d
00000160: 524c 343c 14b4 cbbd 2abf 23be 501d cabc
00000170: 9108 38bd 822d dd3d 9e5a c6bc 2571 17be
00000180: fe67 74be c062 81be 3691 84be babf a7bd
00000190: 3b5b 15be d4af c7be ff2b a6be 678b 2fbe
000001a0: 0a37 5bbe 05c7 8ebe 8c36 93be 68fb a9be
000001b0: a9c9 44be ed07 65bc d3d1 fd3c 581f 673d
000001c0: 9ae3 bf3d 3f81 643d f316 633d 8184 5a3c
000001d0: c6f0 f7bd d6eb 15bd fd13 efbd 881c a6bb
000001e0: a576 e23d 5c12 b23d 765c d43d 25aa 303e
000001f0: 26c8 373c c39d 50bd c70a 5fbd bf89 39bd
00000200: d336 91bd 23b8 783d 600f 643d fdfd 073e
00000210: f31d 173e 6d28 193e 0400 253e cc04 bdbc
00000220: fc39 a23c 179d 673c 14f5 783d 2ace 5d3d
00000230: e3cc d53d 9ed4 ec3d 7c8d f1bd 419e 05be
00000240: 5a4d 07be 3ace cebd 54e7 d8bc 7c95 27bc
00000250: 5cdb 663a f0b0 29bd 34f0 e33d cebd 14bd
00000260: b36d c63b 4059 a63d 0611 ccbc 729d 72bc
00000270: 4534 80be 7bb5 fdbd 78e3 cabd 0da5 f0bc
00000280: ef02 963d 3f9e 8d3d 7025 a03d 3df7 25be
00000290: 3a2d 66bd a6ed d2bd 24d6 0fbe f2dd 203d
000002a0: 5096 703d ab63 f7bb 7d89 fbbb ea47 a4bd
000002b0: dd31 1cbe 378d 5bbc d91d 33bd d539 d0bd
000002c0: a43b 9ebd 0626 b83d 4e9d dd3d c7c1 203e
000002d0: c96c e83d e6a2 7bbc 1850 cebc aaef 62bc
000002e0: d958 33bd 474e 53bd 79bc 873d d0b6 233e
000002f0: 8236 4d3e 1b2e 2b3e d54b 07be 9306 2ebe
00000300: 4a07 cabd 5fa9 c3bd 2695 44bd cb3d 983c
00000310: 318a a13c 3b8c 523e b501 2cbd ccf2 64bd
00000320: 18a9 84bc 4c9a 603d b0a2 29bd c2b8 4fbd
00000330: 1731 f4bd 9168 5bbd 6fa3 a93d 9b5e 57bc
00000340: bd63 803c 8cda 2b3d 8531 263d e2b2 4a3d
00000350: 522e 74be 3112 04be 5ffb d03d d2da b13d
00000360: 9a5c 673c a763 b9bd cad7 b8be 59c1 bfbe
00000370: 6f22 b4be 3191 5e3d 5356 eb3b 0f14 113e
00000380: 742a 1a3d c71c 95bd 34b2 86bd 88fa 1fbe
00000390: 63f6 6cbd 412a e83d ef4a 49bc 3801 1dbd
000003a0: d19a b1bd 17d7 963c 9878 763c 4d28 03bc
000003b0: 1d6b 2f3d f792 8fbd 305d 9abd 6cb3 1cbd
000003c0: cca9 15be 2e08 f53c 62f1 df3d bc82 d1ba
000003d0: 8101 0abd 5fc4 1fbe 87af d2be 8df3 e5bd
000003e0: 9807 31be 99d5 a03d 36f7 6dbd 6ad6 afbc
000003f0: 4e18 fcbc 66ba b5bd fea9 7ebd f06a 58bc

model.0.bias f4 [200]
0.0009908322 0.15223336 -0.054762643 0.03625133 -0.31226408 -0.15338904 -0.07423432 -0.15375294
-0.14801106 0.1866739 0.06806811 -0.1310018 -0.115163416 -0.5062493 -0.2531478 -0.079484746
-0.36051533 -0.037455153 -0.18671654 -0.28368717 -0.32369056 -0.1847112 -0.10359416 -0.13837038
-0.24808763 -0.34688753 0.21249284 0.012151556 -0.14811145 -0.12009769 -0.20054033 -0.3216617
-0.22246334 -0.15741037 -0.21706748 -0.042804543 -0.1303625 -0.2359262 0.15425932 -0.44802707
0.049411215 0.12121537 -0.058468714 0.03936629 -0.004743607 0.19042578 -0.11671063 -0.20933455
0.121591076 0.020320626 -0.17207451 -0.16786075 -0.26497865 0.47287586 -0.24906874 0.1171367
-0.11364262 0.19207591 -0.11961821 0.28267747 -0.22477616 0.08463263 -0.11935684 -0.058439612
-0.691543 0.0078325085 -0.030080684 -0.20719746 -0.0647574 -0.2628052 -0.20857342 -0.11393928
-0.1359821 -0.35359508 -0.09651756 -0.2580497 -0.28655967 -0.04074713 -0.11226797 -0.21948999
-0.23047563 0.06188887 -0.33895782 -0.22245874 0.04169705 0.04791034 -0.14600813 0.013639101
-0.13341697 -0.24985993 -0.08041569 -0.19049342 0.24604231 -0.36683 -0.05165348 0.21005432
0.084614836 0.15036151 -0.29728073 -0.20451392 -0.5870126 -0.15771261 0.078676365 -0.07890711
-0.22819142 -0.22576824 -0.38055542 -0.1910626 -0.11598759 0.10750585 -0.29182133 -0.24216577
0.14198592 0.24192147 0.30464578 -0.23594494 -0.19063067 -0.22956902 0.5506644 -0.17040716
-0.095826544 0.13155508 -0.19109318 0.23956132 0.0074218363 -0.105688974 -0.09341292 -0.3702429
-0.2484195 0.22673796 -0.30141518 -0.19035365 -0.2313753 0.08177741 -0.22420469 0.004836697
-0.06122901 -0.21726575 -0.33662346 -0.40918252 -0.19512925 -0.33398053 -0.2721686 -0.25443733
-0.22422363 0.20404735 0.10009764 -0.36034983 -0.055782657 -0.10799593 0.09482329 -0.05307975
-0.33545884 -0.2086866 -0.01974849 0.003609686 -0.13219222 -0.24424462 -0.037555523 -0.2060813
-0.091906965 -0.21469675 -0.07476468 0.03202357 -0.39568186 -0.29994586 0.17800875 0.20489623
-0.19577476 -0.20398611 0.08817984 -0.19606116 -0.23458368 -0.057837218 -0.18915088 -0.08906353
0.04922349 -0.06006277 0.17220214 -0.37241942 -0.3951636 0.17732361 -0.243685 0.3568845
0.1623118 -0.09412893 -0.22065036 -0.03545005 -0.053802256 -0.16457114 -0.28315935 0.07255561
0.25523525 0.10152894 0.09057884 -0.112514846 0.19950506 -0.2358542 -0.3552224 0.2819604
00000000: d0de 813a 10e3 1b3e cb4e 60bd 467c 143d
00000010: 14e1 9fbe 0412 1dbe 2a08 98bd 6971 1dbe
00000020: 3690 17be 7127 3f3e 4b67 8b3d 5625 06be
00000030: ccda ebbd 8e99 01bf 979c 81be e6c8 a2bd
00000040: 7795 b8be 936a 19bd 9f32 3fbe 723f 91be
00000050: c5ba a5be ef24 3dbe 2d29 d4bd f7b0 0dbe
00000060: af0a 7ebe 3e9b b1be b997 593e 5217 473c
00000070: 87aa 17be c7f5 f5bd 725a 4dbe d8b0 a4be
00000080: 6ecd 63be 2f30 21be f046 5ebe d153 2fbd
00000090: bf7d 05be a396 71be 28f6 1d3e ce63 e5be
000000a0: 6a63 4a3d c43f f83d e47c 6fbd 8c3e 213d
000000b0: 4270 9bbb fafe 423e fc05 efbd cc5b 56be
000000c0: be04 f93d 7177 a63c 4d34 30be b0e3 2bbe
000000d0: 48ab 87be c91c f23e e00b 7fbe 5ee5 ef3d
000000e0: 76bd e8bd 8caf 443e 64fa f4bd 1abb 903e
000000f0: b92b 66be df53 ad3d 5c71 f4bd 605e 6fbd
00000100: f608 31bf ec53 003c c46b f6bc 922b 54be
00000110: 879f 84bd 678e 86be 4594 55be ff58 e9bd
00000120: e43e 0bbe 6a0a b5be 00ab c5bd 171f 84be
00000130: f3b7 92be 76e6 26bd c0ec e5bd fcc1 60be
00000140: ce01 6cbe 2f7f 7d3d e18b adbe 39cc 63be
00000150: 87ca 2a3d a23d 443d 2883 15be 8976 5f3c
00000160: 759e 08be 48db 7fbe fbb0 a4bd b510 43be
00000170: 84f2 7b3e 24d1 bbbe 9992 53bd 7b18 573e
00000180: 8b4a ad3d 5ef8 193e 2e35 98be 196c 51be
00000190: 7546 16bf 6a7f 21be 1321 a13d 0d9a a1bd
000001a0: 03ab 69be ca2f 67be 29d8 c2be eaa5 43be
000001b0: e78a edbd 072c dc3d 9b69 95be 4efa 77be
000001c0: c264 113e 43ba 773e 88fa 9b3e 8d9b 71be
000001d0: b034 43be 2414 6bbe 58f8 0c3f 377f 2ebe
000001e0: b540 c4bd 60b6 063e eead 43be 904f 753e
000001f0: e032 f33b 7673 d8bd 464f bfbd 7a90 bdbe
00000200: ae61 7ebe ff2d 683e 1753 9abe 11ec 42be
00000210: a6ed 6cbe ea7a a73d ea95 65be 287d 9e3b
00000220: 45cb 7abd ea7a 5ebe e959 acbe 5f80 d1be
00000230: f6cf 47be 7fff aabe af59 8bbe 9c45 82be
00000240: e19a 65be caf1 503e feff cc3d c67f b8be
00000250: 5b7c 64bd f82c ddbd b732 c23d 276a 59bd
00000260: 43c1 abbe f1b1 55be 96c7 a1bc 7b90 6c3b
00000270: 665d 07be 431b 7abe d2d3 19bd fa06 53be
00000280: b839 bcbd 77d9 5bbe 391e 99bd 262b 033d
00000290: d096 cabe 8192 99be ed47 363e 51d0 513e
000002a0: 2e79 48be bce1 50be a297 b43d 42c4 48be
000002b0: b436 70be b8e6 6cbd c5b0 41be f166 b6bd
000002c0: 929e 493d 6104 76bd c255 303e c2ad bebe
000002d0: e252 cabe 5294 353e 9088 79be 91b9 b63e
000002e0: 1135 263e abc6 c0bd 2bf2 61be 1234 11bd
000002f0: c15f 5cbd 5685 28be 43fa 90be 0998 943d
00000300: 32ae 823e 68ee cf3d 6681 b93d 2f6e e6bd
00000310: 0e4b 4c3e c383 71be b6df b5be 1d5d 903e

model.2.weight f4 [200]
1.2389905 1.3880732 1.438329 1.4050032 1.1829435 2.353983 1.4656194 0.5079579
0.70142865 1.5348046 1.3256885 1.3899934 1.1480408 1.4643937 1.2517415 1.5047487
1.1771227 1.3799279 1.0560609 1.3554974 1.4610484 1.3934356 0.9158511 1.0250845
1.1041416 1.4787084 0.7639226 1.4348974 1.4304601 1.2318028 0.9476273 1.087926
1.21325 0.942037 1.3313767 1.4938551 1.3323574 1.5290554 1.5653058 1.1555139
1.4240398 1.3993368 1.406631 1.4646759 2.2008781 1.4183669 1.4362029 1.3600032
1.3610221 1.4299902 1.3150954 1.1447523 1.2359332 1.4699451 1.1827395 1.4476928
1.1512353 1.3913687 1.3664064 1.4084402 1.0588398 1.3772789 1.3165109 1.4842762
0.91947204 1.4159825 1.0602541 1.2695929 1.390743 1.0846543 1.2654957 1.2943742
1.3907024 1.3194737 1.4467609 1.383983 1.3662192 1.4794672 1.4390519 1.1746118
1.5035967 1.4761492 1.4953367 1.279097 1.3200755 1.4432528 1.4934056 1.3404043
1.3041935 1.3459494 1.3437283 0.81482756 1.3825443 1.1871015 1.3602728 1.3765647
1.3858941 1.3635108 1.422469 1.7643691 1.4137288 1.2152638 1.4015783 1.4202185
1.3191669 1.4628222 1.1672624 1.2990068 1.3350651 1.4463781 1.4002721 1.1471093
1.3797345 1.2965144 1.5081333 1.4386795 1.2950308 1.4899536 1.3888148 1.287171
1.4923955 1.3776203 1.4154012 1.495279 1.2585745 1.2500138 0.97410387 1.2103008
1.4129971 1.4040514 1.055842 1.09888 1.2305884 1.4194983 1.1997749 1.1262414
1.3863788 1.3324949 1.3168589 1.2747222 1.1276428 1.3570211 1.4927008 1.3401865
1.2852343 1.3628044 1.3857982 1.4640105 1.3739017 1.0953565 1.3795483 1.4672562
1.5128076 1.418609 1.2848837 1.3454305 0.81135476 1.1024456 1.2696009 0.7056542
1.3871365 1.3370258 1.284931 1.5236856 1.3679849 1.4141757 1.4464753 1.4104918
1.1993054 1.3085089 1.4074167 1.4106153 1.1166403 1.4538623 1.1597512 1.5495931
1.324344 1.3193307 1.3010002 1.2629129 1.4316249 1.4156159 1.0723225 1.3704755
1.4625905 1.4009228 1.3830441 1.4392812 1.2820656 1.3438436 1.3191537 1.4175142
1.3834113 1.352439 1.4522605 1.4202583 1.3128513 1.2497905 1.6524196 1.4001449
00000000: 3e97 9e3f 62ac b13f 2a1b b83f 25d7 b33f
00000010: b16a 973f a8a7 1640 6b99 bb3f 8709 023f
00000020: d490 333f 7a74 c43f 29b0 a93f 4eeb b13f
00000030: 00f3 923f 4171 bb3f 1139 a03f 9b9b c03f
00000040: f5ab 963f 7aa1 b03f 012d 873f f080 ad3f
00000050: a203 bb3f 195c b23f 3875 6a3f f835 833f
00000060: 8354 8d3f 5146 bd3f 6e90 433f b8aa b73f
00000070: 5119 b73f b7ab 9d3f b497 723f 2941 8b3f
00000080: c74b 9b3f 5629 713f 8d6a aa3f a536 bf3f
00000090: b08a aa3f 16b8 c33f f15b c83f e1e7 933f
000000a0: f046 b63f 781d b33f 7c0c b43f 807a bb3f
000000b0: 30db 0c40 0c8d b53f 7fd5 b73f 9614 ae3f
000000c0: f935 ae3f eb09 b73f 0c55 a83f 3e87 923f
000000d0: 0f33 9e3f 2927 bc3f 0264 973f ff4d b93f
000000e0: ae5b 933f 5f18 b23f 68e6 ae3f c547 b43f
000000f0: 1088 873f ad4a b03f 6e83 a83f c3fc bd3f
00000100: 8562 6b3f ea3e b53f 68b6 873f 0582 a23f
00000110: de03 b23f f4d5 8a3f c3fb a13f 0eae a53f
00000120: 8902 b23f 84e4 a83f 762f b93f 5b26 b13f
00000130: 45e0 ae3f 2e5f bd3f da32 b83f ae59 963f
00000140: db75 c03f 75f2 bc3f 3167 bf3f 73b9 a33f
00000150: 3cf8 a83f 82bc b83f ea27 bf3f 5e92 ab3f
00000160: d0ef a63f 1248 ac3f 4aff ab3f 8a98 503f
00000170: 36f7 b03f f1f2 973f 6b1d ae3f 4633 b03f
00000180: fa64 b13f 8687 ae3f 7713 b63f d9d6 e13f
00000190: 11f5 b43f c48d 9b3f eb66 b33f b8c9 b53f
000001a0: 76da a83f c23d bb3f db68 953f db45 a63f
000001b0: 6ae3 aa3f eb22 b93f 1e3c b33f 7ad4 923f
000001c0: 249b b03f 2ff4 a53f 830a c13f a626 b83f
000001d0: 92c3 a53f cdb6 be3f afc4 b13f 05c2 a43f
000001e0: d106 bf3f dd55 b03f de2b b53f 4d65 bf3f
000001f0: f818 a13f 7400 a03f df5e 793f 23eb 9a3f
00000200: 17dd b43f f5b7 b33f d525 873f 1aa8 8c3f
00000210: ec83 9d3f 1fb2 b53f 3992 993f ae28 903f
00000220: dc74 b13f 318f aa3f d58e a83f 192a a33f
00000230: 9956 903f deb2 ad3f d210 bf3f 3b8b ab3f
00000240: 8f82 a43f 6070 ae3f d661 b13f b264 bb3f
00000250: 03dc af3f a434 8c3f 0a95 b03f 0dcf bb3f
00000260: aea3 c13f fb94 b53f 1277 a43f 1137 ac3f
00000270: f2b4 4f3f f01c 8d3f 4882 a23f c1a5 343f
00000280: b08d b13f a923 ab3f 9e78 a43f 2108 c33f
00000290: 211a af3f b603 b53f 1a26 b93f ff8a b43f
000002a0: d782 993f 387d a73f 3b26 b43f 0b8f b43f
000002b0: 12ee 8e3f 2918 ba3f ba72 943f 1159 c63f
000002c0: 1b84 a93f d4df a83f 2d87 a63f 21a7 a13f
000002d0: 7c3f b73f e732 b53f dd41 893f be6b af3f
000002e0: 2a36 bb3f 7051 b33f 9707 b13f 5e3a b83f
000002f0: ba1a a43f 1103 ac3f 07da a83f 1b71 b53f
00000300: 9f13 b13f b91c ad3f ace3 b93f 06cb b53f
00000310: 830b a83f 23f9 9f3f 7c82 d33f f337 b33f

model.2.bias f4 [200]
-0.050104126 0.067983665 0.0676275 0.06995465 -0.046485577 -0.058730748 0.06650124 -0.20440765
-0.21953592 0.069918886 0.05759035 0.061091688 -0.034285147 -0.056017824 -0.060894694 -0.059456676
-0.06255492 0.06761584 0.010638408 -0.05062534 -0.05913248 0.065428175 -0.044824388 -0.043282304
-0.075761296 -0.031773772 -0.24247663 0.072426155 -0.06387156 -0.058497556 0.0042060507 -0.034828678
-0.049839042 -0.097976774 -0.04937612 0.06590156 0.06662848 0.07051003 0.0723626 -0.060725342
-0.058567822 0.06477617 0.066564575 0.061960913 -0.05920737 0.06769792 -0.058940407 -0.05497278
0.06845744 0.06907168 0.0673351 -0.004814534 -0.057604585 0.06791555 -0.048347145 0.05654505
-0.02947248 0.070208766 0.06284165 0.067467965 -0.01606329 0.07065925 0.06537619 0.075518616
-0.09839102 0.07382174 -0.042038165 -0.0111798765 -0.057568 -0.049199454 -0.06605579 -0.06313907
0.07126578 -0.060816437 0.07357472 0.053602736 -0.053855527 0.07007671 0.06953281 -0.04014886
0.06813836 0.059710905 -0.05846434 -0.056618717 0.06505849 0.067940004 0.057386998 0.059785437
-0.06392345 -0.061406497 0.05660789 -0.104533054 0.065284036 -0.065963015 0.05563911 0.072409034
0.059597723 0.06433029 -0.05544461 -0.05565607 0.05462176 -0.04830524 0.07268029 0.06564051
-0.05550673 -0.0563663 -0.050344918 -0.05108044 -0.03465871 0.0684102 0.067442864 -0.039177734
0.07138136 0.063624874 0.06814286 0.061315887 -0.02812811 0.07322661 0.06792175 -0.061360937
0.067689195 0.069962025 0.06474563 0.06602552 -0.04319008 -0.024104143 -0.08853839 -0.064968206
-0.061905526 0.06442581 -0.025752978 -0.011343579 -0.03934387 0.065595336 -0.039711494 -0.06533071
-0.057668872 0.062786445 -0.055868004 -0.048883867 0.047586802 -0.06298722 -0.058394056 -0.046168257
-0.05638767 0.06845041 0.06734637 0.06488522 0.067953184 -0.039733786 0.060291577 0.07043723
-0.05655488 -0.06070177 0.063344635 0.06580981 -0.2742601 -0.06910209 -0.05321465 -0.2578067
0.065615244 -0.054663643 -0.05646839 0.06683788 -0.058531657 -0.054827407 0.06712185 0.068676114
-0.035860874 0.05885574 0.05694167 0.06180218 -0.032085046 0.06808433 -0.07204344 0.06766759
0.06688835 0.067102455 0.06535166 -0.05513288 -0.060670123 0.055579465 -0.065043546 0.06622996
0.06875972 0.06636351 -0.054439124 -0.056910906 -0.022365537 0.06637194 -0.05754152 0.06570459
0.033190586 0.06357431 0.07076938 0.071351185 0.06202764 -0.048002657 -0.07185877 0.06328933
00000000: fc39 4dbd 053b 8b3d 4980 8a3d 6244 8f3d
00000010: a967 3ebd a78f 70bd cd31 883d 3d50 51be
00000020: 06ce 60be a231 8f3d dce3 6b3d 473b 7a3d
00000030: 956e 0cbd f272 65bd b76c 79bd d888 73bd
00000040: cb1c 80bd 2c7a 8a3d b84c 2e3c 845c 4fbd
00000050: e634 72bd 35ff 853d c799 37bd c948 31bd
00000060: bd28 9bbd 3725 02bd cb4b 78be 2a54 943d
00000070: 18cf 82bd 229b 6fbd e9d2 893b 84a8 0ebd
00000080: 0624 4cbd 0ca8 c8bd 9d3e 4abd 66f7 863d
00000090: 8374 883d 9067 903d d832 943d 23bb 78bd
000000a0: d0e4 6fbd 5ea9 843d 0253 883d baca 7d3d
000000b0: 6d83 72bd 35a5 8a3d 7f6b 71bd 232b 61bd
000000c0: 6a33 8c3d 7475 8d3d fce6 893d 3dc3 9dbb
000000d0: c9f2 6bbd 4f17 8b3d a807 46bd c89b 673d
000000e0: 4570 f1bc 9dc9 8f3d 1fb3 803d a52c 8a3d
000000f0: 2997 83bc ccb5 903d f4e3 853d 81a9 9a3d
00000100: 3b81 c9bd da2f 973d 3630 2cbd cd2b 37bc
00000110: 6ccc 6bbd 5e85 49bd 4248 87bd 0f4f 81bd
00000120: cbf3 913d a81a 79bd 58ae 963d 8b8e 5b3d
00000130: 9d97 5cbd 6184 8f3d 3867 8e3d 2273 24bd
00000140: 208c 8b3d 6c93 743d 4e78 6fbd 07e9 67bd
00000150: 633d 853d 2124 8b3d a10e 6b3d 93e1 743d
00000160: 4cea 82bd 6185 7bbd addd 673d 6d15 d6bd
00000170: a3b3 853d 9e17 87bd d6e5 633d 304b 943d
00000180: be1c 743d 99bf 833d e319 63bd 9ff7 63bd
00000190: 11bb 5f3d b7db 45bd 67d9 943d 886e 863d
000001a0: 065b 63bd 59e0 66bd 7936 4ebd b939 51bd
000001b0: 4bf6 0dbd a61a 8c3d 7c1f 8a3d d578 20bd
000001c0: 6430 923d c24d 823d 7c8e 8b3d 5e26 7b3d
000001d0: ec6c e6bc d5f7 953d 8f1a 8b3d 9b55 7bbd
000001e0: a2a0 8a3d 4048 8f3d 5b99 843d 6338 873d
000001f0: 15e8 30bd 0d76 c5bc 9e53 b5bd 0d0e 85bd
00000200: a690 7dbd aef1 833d e9f7 d2bc 6bda 39bc
00000210: 0a27 21bd d956 863d 85a8 22bd 1bcc 85bd
00000220: 3236 6cbd 2e96 803d d9d5 64bd 733a 48bd
00000230: 61ea 423d 72ff 80bd 9b2e 6fbd ed1a 3dbd
00000240: c2f6 66bd bb2f 8c3d e5ec 893d 8be2 843d
00000250: 0a2b 8b3d e5bf 22bd 4df4 763d 6541 903d
00000260: 17a6 67bd 6ba2 78bd d5ba 813d 4bc7 863d
00000270: d26b 8cbe 6685 8dbd 9bf7 59bd 3dff 83be
00000280: 4961 863d fce6 5fbd 664b 67bd 4ce2 883d
00000290: e4be 6fbd b492 60bd 2e77 893d 10a6 8c3d
000002a0: dae2 12bd b712 713d ab3b 693d 4824 7d3d
000002b0: 9c6b 03bd cc6f 8b3d 838b 93bd 4e95 8a3d
000002c0: c2fc 883d 036d 893d 17d7 853d 04d3 61bd
000002d0: 3c81 78bd 4ba7 633d 8d35 85bd 93a3 873d
000002e0: e5d1 8c3d 98e9 873d 8ffb 5ebd 691b 69bd
000002f0: ee37 b7bc 03ee 873d a8b0 6bbd 2190 863d
00000300: daf2 073d 3f33 823d 89ef 903d 9220 923d
00000310: b210 7e3d 6f9e 44bd b12a 93bd d69d 813d

model.3.weight f4 [1, 200]
-0.17684774 0.48422113 0.48948276 0.45288214 -0.1829326 -1.2837759 0.5147461 -0.03097271
0.020373046 0.64322156 0.37247357 0.42925903 -0.11698152 -0.43562025 -0.28211904 -0.51044387
-0.18140405 0.46535614 -0.12674351 -0.30232584 -0.37558085 0.5063308 0.06475927 -0.11392012
-0.15708816 -0.40819797 0.05525414 0.47985178 -0.36050004 -0.19864045 -0.14597793 -0.13148329
-0.20003851 -0.024533188 -0.29971108 0.55614835 0.37524992 0.6564341 0.62160707 -0.18103904
-0.43876573 0.48180145 0.47092882 0.5420503 -1.1268867 0.49333367 -0.39322072 -0.33844656
0.4364364 0.5376791 0.41980597 -0.16977453 -0.19751288 0.5272765 -0.152542 0.47524467
-0.16914849 0.49417174 0.44104952 0.41988692 -0.13718012 0.49799332 0.40952328 0.54760724
-0.014546609 0.46814692 -0.1214151 -0.22586474 -0.40375888 -0.100565754 -0.25051618 -0.2741757
0.48726952 -0.27361965 0.5271741 0.404575 -0.31350917 0.54019344 0.5212885 -0.14298275
0.58374256 0.5422896 -0.43069848 -0.21195441 0.39391133 0.54069996 0.53888464 0.43203762
-0.23630907 -0.24553265 0.36878943 -0.038526945 0.46014634 -0.14967605 0.37951878 0.44394317
0.42028198 0.3902447 -0.42276722 -0.7215638 0.44347054 -0.22292839 0.45719728 0.45617682
-0.2784579 -0.44395563 -0.18153583 -0.23633386 -0.2770085 0.5371726 0.46538556 -0.11318298
0.46789676 0.37539575 0.55478036 0.49326795 -0.27548897 0.5033016 0.49815404 -0.314354
0.61869615 0.4245869 0.45665818 0.6036588 -0.19264637 -0.18388614 -0.042237937 -0.16492833
-0.37840545 0.44577926 -0.0871659 -0.15141805 -0.19979785 0.49200484 -0.20522587 -0.15758626
-0.34885043 0.40767625 -0.3271263 -0.21654248 -0.2747402 -0.26312 -0.44858783 -0.3669514
-0.21325053 0.46088475 0.48613894 0.5228154 0.43301052 -0.13873406 0.4391179 0.56015897
-0.4647865 -0.30627757 0.39049098 0.39702258 0.08303543 -0.1192917 -0.302596 0.0173904
0.4855716 -0.3050064 -0.28662422 0.62504065 -0.31442696 -0.38862002 0.5347416 0.4828522
-0.18765102 0.3779004 0.4574379 0.4415394 -0.16341865 0.52205384 -0.13420731 0.65042645
0.44456404 0.4200796 0.3848573 -0.21678054 -0.4237409 0.4763655 -0.115715034 0.47517866
0.55726224 0.48849162 -0.34891146 -0.4389771 0.32202968 0.4259417 -0.26665017 0.45976615
0.41302472 0.37868544 0.50570124 0.51632124 0.38893047 -0.19670051 -0.5059952 0.47543857
00000000: 9317 35be d5eb f73e 7c9d fa3e 2be0 e73e
00000010: af52 3bbe c552 a4bf 67c6 033f 7bba fdbc
00000020: 60e5 a63c 2baa 243f dbb4 be3e d7c7 db3e
00000030: 0294 efbd 9e09 dfbe e871 90be 73ac 02bf
00000040: fcc1 39be 2943 ee3e 0dc9 01be 74ca 9abe
00000050: 224c c0be e59e 013f 82a0 843d f44e e9bd
00000060: b8db 20be 53ff d0be 2a52 623d 22af f53e
00000070: 7693 b8be 6768 4bbe 3d7b 15be 8ea3 06be
00000080: e5d6 4cbe d3f9 c8bc bb73 99be bd5f 0e3f
00000090: c220 c03e 110c 283f a421 1f3f 4c62 39be
000000a0: e7a5 e0be aeae f63e 951d f13e cfc3 0a3f
000000b0: d33d 90bf 3b96 fc3e 3a54 c9be de48 adbe
000000c0: 9874 df3e 56a5 093f cff0 d63e 60d9 2dbe
000000d0: d140 4abe 98fb 063f f833 1cbe 4553 f33e
000000e0: 4335 2dbe 1404 fd3e 3ed1 e13e 6bfb d63e
000000f0: f278 0cbe fbf8 fe3e 09ad d13e fd2f 0c3f
00000100: e654 6ebc f4b0 ef3e 7ba8 f8bd 1649 67be
00000110: 7cb9 cebe 6bf5 cdbd a843 80be c260 8cbe
00000120: 647b f93e e017 8cbe e2f4 063f 7424 cf3e
00000130: 4684 a0be 1e4a 0a3f 2a73 053f 126a 12be
00000140: 2770 153f 7ed3 0a3f 8384 dcbe 940a 59be
00000150: bfae c93e 506b 0a3f 58f4 093f 0934 dd3e
00000160: 01fb 71be e96c 7bbe f8d1 bc3e 6ece 1dbd
00000170: 4d98 eb3e ae44 19be 4950 c23e 854c e33e
00000180: 332f d73e 27ce c73e f274 d8be 68b8 38bf
00000190: 920e e33e 5747 64be c315 ea3e 0290 e93e
000001a0: 0992 8ebe 274e e3be 87e4 39be 8101 72be
000001b0: 0fd4 8dbe 2584 093f 0447 ee3e 7acc e7bd
000001c0: 2a90 ef3e df33 c03e 1606 0e3f 9e8d fc3e
000001d0: e40c 8dbe 60d8 003f 0c0e ff3e 02f3 a0be
000001e0: df62 1e3f 7463 d93e 1acf e93e 6289 1a3f
000001f0: 1745 45be a64c 3cbe b001 2dbd f9e2 28be
00000200: 5cbe c1be 2e3d e43e 0984 b2bd 550d 1bbe
00000210: cf97 4cbe 0fe8 fb3e bb26 52be 4b5e 21be
00000220: 869c b2be f1ba d03e 197d a7be 50bd 5dbe
00000230: bfaa 8cbe aab7 86be 4ead e5be 0ee1 bbbe
00000240: 595e 5abe 16f9 eb3e 34e7 f83e 3bd7 053f
00000250: 8eb3 dd3e 4d10 0ebe 10d4 e03e 9466 0f3f
00000260: 7ff8 edbe 6ad0 9cbe 6fee c73e 8b46 cb3e
00000270: 7b0e aa3d 354f f4bd dded 9abe 5076 8e3c
00000280: d79c f83e cd29 9cbe 69c0 92be aa02 203f
00000290: 92fc a0be 34f9 c6be d3e4 083f 6738 f73e
000002a0: 9727 40be 297c c13e 4d35 ea3e 7411 e23e
000002b0: 3857 27be 52a5 053f a46d 09be 5982 263f
000002c0: e69d e33e ac14 d73e 040c c53e b8fb 5dbe
000002d0: 91f4 d8be 2ee6 f33e 01fc ecbd 9e4a f33e
000002e0: bda8 0e3f 931b fa3e 86a4 b2be 9bc1 e0be
000002f0: 13e1 a43e 0815 da3e 5f86 88be 7866 eb3e
00000300: fa77 d33e 0fe3 c13e a375 013f a12d 043f
00000310: e521 c73e dc6b 49be e788 01bf af6c f33e
