deep_learning/GAN/MNIST_label/model/Generator.pt (torch, 722839 bytes, 6 tensors)

model.0.weight f4 [200, 110]
0	0x3d9408ab	0.07228216
1	0x3cd0e745	0.025500903
2	0x3bb6bf48	0.0055770017
3	0xbd6f06ef	-0.05835622
4	0x3d0c4e66	0.034254454
5	0x3d0d60f4	0.03451629
6	0xbc57ed9a	-0.013179207
7	0xbcd10794	-0.025516309
8	0x3c81951c	0.015818171
9	0xbcb11e7e	-0.021620985
10	0xbcdc4e74	-0.026892878
11	0xbcbc1fa0	-0.022964299
12	0x3dadd90b	0.08488663
13	0x3d8f545a	0.06998511
14	0x3d1d40f1	0.03839201
15	0x3d0944d2	0.033512898
16	0x3ce20354	0.027589478
17	0x3d348237	0.044069495
18	0xbb06db64	-0.0020577544
19	0x3d1c0102	0.0380869
20	0xbdd63406	-0.104591414
21	0x3d291eef	0.041289266
22	0x3d189043	0.037246954
23	0xbe0a7110	-0.13519692
24	0x3d60a930	0.05484885
25	0xbd9e929e	-0.07742809
26	0xbc4df366	-0.012570238
27	0xbc08ca3e	-0.008349
28	0x3bd483f1	0.006485455
29	0x3d87ef37	0.066374235
30	0xb9965eae	-0.0002868077
31	0xbd1cf436	-0.038318835
32	0xbd0190c1	-0.03163219
33	0x3cef1dab	0.029188951
34	0xba8a381f	-0.001054529
35	0xbc8221f6	-0.015885334
36	0x3cd1fe7f	0.025634049
37	0xbcb9aa9d	-0.022664363
38	0xbe1d7efd	-0.15380473
39	0x3c5937e3	0.013257953
40	0x3ab03c19	0.0013445645
41	0xbc4bdc2f	-0.012442633
42	0xbdf92e2e	-0.12167011
43	0x3d330fce	0.043716244
44	0xbd8c5c44	-0.06853536
45	0x3d9c1717	0.076215915
46	0x3d996ac3	0.07491066
47	0xbd3d62fd	-0.04623698
48	0xbd3485db	-0.044072967
49	0x3d64e257	0.055879917
50	0xbb4b1139	-0.0030985607
51	0x3cb32dc0	0.021872401
52	0xba740aac	-0.00093094516
53	0xbdc63fea	-0.096801594
54	0x3cfb6e93	0.030692374
55	0xbcff0c31	-0.031133743
56	0x3d402742	0.04691244
57	0xbcfcd3e8	-0.030862764
58	0xbd6bf623	-0.05760778
59	0x3d807847	0.06272941
60	0x3b8191d5	0.003954152
61	0x3ce8f7d5	0.028438488
62	0x3d71e5bb	0.05905698
63	0xbdb013e1	-0.085975416
64	0x3d398325	0.045291085
65	0x3ce09975	0.027416924
66	0xbd6424b9	-0.055699084
67	0xbccb6a50	-0.024830967
68	0xbd1e6db8	-0.038678855
69	0xbc69678c	-0.014245879
70	0xbd0a97b2	-0.033836074
71	0x3cf5be5f	0.029998003
72	0xbd1b8577	-0.03796908
73	0x3d5399db	0.0516604
74	0x3d869ff5	0.06573478
75	0x3d0ba701	0.034094814
76	0x3c3d0090	0.011535779
77	0x3dac1c7f	0.08403873
78	0x3d57a350	0.05264598
79	0x3d94e90c	0.07271013
80	0x3dee976b	0.116499744
81	0xbce230cc	-0.027611159
82	0xbccacec1	-0.024756791
83	0xbd18897e	-0.037240498
84	0x3d9cd84f	0.07658445
85	0xbd849397	-0.06473463
86	0x3cc27946	0.023739468
87	0xbd8973c4	-0.06711534
88	0xbcd66a19	-0.026173638
89	0x3c2e0d77	0.010623327
90	0xba9ef2db	-0.001212682
91	0x3d017000	0.031600952
92	0xbd0c3303	-0.034228336
93	0x3cdd997a	0.027050722
94	0xbcf9489f	-0.030430136
95	0x3bf3faeb	0.0074456832
96	0x3cb263c1	0.021776082
97	0xbd1c05c8	-0.03809145
98	0xbdaf1c8d	-0.085503675
99	0x3b8a2296	0.0042155487
100	0x3e0edef9	0.13952245
101	0xbf6829c9	-0.9068876
102	0x3f1d7ecd	0.6152161
103	0xbf0acc78	-0.54218245
104	0x3d984a6b	0.07436069
105	0xbf3020cd	-0.6880005
106	0x3e1ac641	0.1511469
107	0xbf1d05ae	-0.6133679
108	0xbedd8d71	-0.43271974
109	0x3dac62d6	0.08417289
110	0x3d9b4629	0.07581741
111	0x3bb1d535	0.0054270276
112	0x3d3330e4	0.043747798
113	0xbcf6d89d	-0.030132586
114	0x3d4db220	0.0502187
115	0x3d22c7ca	0.039741315
116	0x3d820d72	0.06350221
117	0x3c1f4fd9	0.009723627
118	0xbbf1402b	-0.0073623857
119	0xbd542fc1	-0.051803354
120	0x3d9087f0	0.07057178
121	0xbc8f1393	-0.017465388
122	0x3caf1c21	0.021375718
123	0xbc4d8645	-0.012544219
124	0xbde6f47a	-0.11277099
125	0xbb92a55a	-0.004475278
126	0xbd96caf3	-0.07362928
127	0xbbece9d0	-0.007230021
128	0x3d98d0af	0.07461678
129	0x3cd82e17	0.026389165
130	0xbe0ee435	-0.13954242
131	0x3c2ad16d	0.010425908
132	0xbbd8a9bf	-0.006612032
133	0xbd79f054	-0.06102021
134	0x3d14971f	0.036276933
135	0xbc3a9684	-0.011388425
136	0x3c267dac	0.010161798
137	0xbd8a13eb	-0.0674208
138	0x3d3b0288	0.04565671
139	0x3da3770c	0.07981691
140	0xbdcd6110	-0.10028279
141	0x3ceeb7bc	0.029140346
142	0x3de2ca28	0.110737145
143	0x3d677cec	0.05651562
144	0x3c11adb4	0.008891512
145	0x3db4a9c8	0.08821446
146	0xbc538348	-0.012909718
147	0x3d046273	0.03232045
148	0xbcc3d81b	-0.023906758
149	0x3d7f2244	0.062288538
150	0x3d1e0385	0.038577575
151	0x3e37ed2e	0.1796157
152	0xbcdd9aba	-0.027051318
153	0xbe1b18aa	-0.15146127
154	0x3cb382c2	0.021912936
155	0x3c01022b	0.007874052
156	0x3d81f71e	0.06345962
157	0xbd933ec9	-0.0718971
158	0x3bd435a8	0.006476123
159	0x3e0e81b5	0.13916667
160	0x3cfd1a4d	0.03089633
161	0x3d9bde63	0.07610776
162	0xbd8f7882	-0.07005407
163	0xbbcf8a7d	-0.0063336478
164	0x3b87f1e2	0.0041487077
165	0x3b01561c	0.0019735163
166	0xbb3e671d	-0.002905316
167	0xbcf76b35	-0.030202487
168	0xbe1a3b3f	-0.15061663
169	0x3d9d5161	0.076815374
170	0xbd2006d1	-0.039069
171	0xbd4697cd	-0.048484612
172	0x3cac6ed2	0.021048937
173	0x3c1d644b	0.009606431
174	0xbda25464	-0.079262525
175	0x3c1f9afa	0.009741539
176	0xbdda660c	-0.10663995
177	0x3e16fba0	0.14744425
178	0xbd49ce79	-0.049269173
179	0x3dc0bd93	0.094111584
180	0x3cf50df6	0.029913884
181	0xbd73b7ba	-0.059501387
182	0x3de8d121	0.11368013
183	0x3d30bd30	0.043149173
184	0xbd905f6f	-0.070494525
185	0x3d29e5fc	0.041479096
186	0x39e51e26	0.00043700746
187	0xbd0eda1d	-0.034875978
188	0xbd45827b	-0.04822014
189	0x3d3ee619	0.046606157
190	0x3d278a30	0.04090327
191	0xbd1a0ef9	-0.037611935
192	0xbdcc1dca	-0.09966619
193	0xbcd415c6	-0.025889289
194	0x3c2f2dce	0.010692073
195	0xbd8aa5b1	-0.067698844
196	0x3da8b8d0	0.08238375
197	0xbd96c43a	-0.07361646
198	0xbd8d3b2d	-0.068960525
199	0x3d853395	0.06503979
200	0x3cb93dfd	0.022612566
201	0x3dbadb8a	0.09123905
202	0x3d0d0ff4	0.034439042
203	0x3cccf139	0.025017368
204	0xbde9052e	-0.11377941
205	0x3d1edad2	0.038782902
206	0x3d86a28f	0.06573974
207	0xbdc167bd	-0.09443615
208	0x3c8be7a8	0.017078236
209	0xbd5c4ea6	-0.053785942
210	0xbf1f47e2	-0.6221906
211	0x3f21f708	0.63267565
212	0xbdf55868	-0.11979753
213	0xbe89bfa2	-0.26904017
214	0xbe1a3376	-0.15058693
215	0xbe91e97d	-0.2849845
216	0x3e5cf86a	0.21579137
217	0xbef40488	-0.47659707
218	0x3ecf1f51	0.4045358
219	0xbd045d4c	-0.032315537
220	0xbe1c5964	-0.15268475
221	0xbde2f64d	-0.110821344
222	0xbb9e5221	-0.004831568
223	0x3d8234df	0.063577406
224	0x3c7991a8	0.015232481
225	0x3cf86e30	0.030325979
226	0x3d140334	0.036135867
227	0x3cd295e7	0.025706245
228	0xbd84d7b4	-0.064864546
229	0x3cae3451	0.02126518
230	0x3db74f7c	0.08950707
231	0xbc0addc3	-0.008475724
232	0xbe077b61	-0.13230659
233	0xbde981a2	-0.114016786
234	0xbdd9ce71	-0.10635079
235	0xbe3118af	-0.17294572
236	0xbd03f1c2	-0.03221298
237	0x3d177849	0.036979947
238	0x3cbb478b	0.022861263
239	0x3d2927a8	0.041297585
240	0xbd3ca877	-0.046059098
241	0x3bd7a153	0.0065805106
242	0x3d79e575	0.061009843
243	0x3db45f67	0.08807259
244	0x3d018c12	0.031627722
245	0x3d9fba75	0.07799236
246	0xbaa91a4b	-0.0012901513
247	0x3cdf279a	0.027240563
248	0x3e0403ed	0.12892123
249	0x3e413842	0.18869117
250	0x3dd5f199	0.10446472
251	0xbd1d6873	-0.03842969
252	0x3e0fc2da	0.14039174
253	0xbc94697f	-0.01811671
254	0xbdd371b9	-0.10324425
255	0xbce1baf2	-0.027554963

model.0.bias f4 [200]
0	0xbed184bc	-0.4092158
1	0xbe204f4f	-0.15655254
2	0xbddf6a64	-0.10908964
3	0xbeafc069	-0.34326485
4	0xbe2f8510	-0.17140603
5	0xbe2f6155	-0.17126973
6	0xbe9e5819	-0.30926588
7	0xbe9b2471	-0.3030124
8	0xbe8f8605	-0.28031936
9	0xbee3230e	-0.44362682
10	0xbe86703e	-0.2625751
11	0xbe47b23f	-0.19501589
12	0xbf2520a9	-0.6450296
13	0xbdb09870	-0.08622825
14	0xbe3c7bbe	-0.18406579
15	0xbee69631	-0.45036462
16	0xbf0ba8a3	-0.54554194
17	0xbe9aca82	-0.30232626
18	0xbe5b9573	-0.21443729
19	0xbec3264a	-0.3811515
20	0xbf31d811	-0.69470316
21	0xbf20b905	-0.6278232
22	0xbed7a8f5	-0.4212109
23	0xbe245051	-0.16046263
24	0xbeec70ac	-0.46179712
25	0xbf0283bf	-0.5098228
26	0xbef86f0e	-0.48522228
27	0xbef2aa45	-0.4739553
28	0xbebf9c61	-0.37423995
29	0xbeefb47a	-0.4681738
30	0xbe95c010	-0.29248095
31	0xbec3b433	-0.3822342
32	0xbe22f2f8	-0.15912998
33	0xbe8b9b21	-0.2726679
34	0xbeb4545e	-0.35220617
35	0xbe82dd6d	-0.2555956
36	0xbea1c769	-0.3159745
37	0xbe97921e	-0.29603666
38	0xbed83b87	-0.42232916
39	0xbec46001	-0.38354495
40	0xbe8ce1a7	-0.2751591
41	0xbe949594	-0.2902037
42	0xbe75e5ca	-0.24013439
43	0xbedb90c8	-0.42883897
44	0xbed88a24	-0.42292893
45	0xbf032daa	-0.5124155
46	0xbe8479e4	-0.25874245
47	0xbf020536	-0.507892
48	0xbe9b8882	-0.30377585
49	0xbed2e0fa	-0.41187268
50	0xbf153000	-0.5827637
51	0xbe6a7fd2	-0.22900322
52	0xbe620599	-0.22072448
53	0xbe2aacc7	-0.16667472
54	0xbf14177d	-0.5784834
55	0xbedb460f	-0.42826888
56	0xbeb50920	-0.35358524
57	0xbefea09a	-0.49731904
58	0xbeab1ca3	-0.33420286
59	0xbf0b793a	-0.5448185
60	0xbe53e394	-0.20692283
61	0xbeeaecf3	-0.45883903
62	0xbf3030e3	-0.68824595
63	0xbedbf1f4	-0.42958033
64	0xbec2b8a3	-0.38031492
65	0xbeb1e89c	-0.3474778
66	0xbe5c90b6	-0.21539578
67	0xbf17d65f	-0.5931148
68	0xbef35259	-0.47523764
69	0xbf090a87	-0.5353169
70	0xbefc4ceb	-0.49277434
71	0xbf161a3e	-0.5863379
72	0xbee4e02c	-0.4470228
73	0xbebd1d09	-0.36936215
74	0xbe10a38b	-0.14124887
75	0xbe9b0edc	-0.30284774
76	0xbf03e9e2	-0.5152875
77	0xbe71f456	-0.23628363
78	0xbe74e2fb	-0.23914711
79	0xbebc789f	-0.36810777
80	0xbecd40ec	-0.40088594
81	0xbeaf96ae	-0.34294647
82	0xbe87bf05	-0.26512924
83	0xbefe5874	-0.4967686
84	0xbef33fe5	-0.47509685
85	0xbe743b91	-0.23850848
86	0xbeb0fe3c	-0.34568965
87	0xbec6f6f7	-0.38860294
88	0xbe89e633	-0.2693344
89	0xbe2cc0e3	-0.16870455
90	0xbf22dee1	-0.63621336
91	0xbda63a6d	-0.081166126
92	0xbed7e853	-0.42169437
93	0xbede257e	-0.4338798
94	0xbef311cb	-0.47474512
95	0xbeaba51d	-0.3352441
96	0xbe825a8c	-0.25459707
97	0xbee56c98	-0.44809413
98	0xbf35eea0	-0.7106724
99	0xbe5aef70	-0.213804
100	0xbf0270bb	-0.50953263
101	0xbe8500e9	-0.25977257
102	0xbe88758a	-0.26652175
103	0xbebcdb92	-0.3688627
104	0xbf06842d	-0.52545434
105	0xbedcf472	-0.43155247
106	0xbf0464f5	-0.5171655
107	0xbed67faa	-0.41894275
108	0xbe5b12fa	-0.21393958
109	0xbd9bd1ea	-0.07608397
110	0xbece5d6c	-0.4030565
111	0xbe76fa37	-0.24118887
112	0xbf039b62	-0.5140897
113	0xbe3a497c	-0.18192095
114	0xbe1d34a7	-0.15352117
115	0xbf0a30e9	-0.5398088
116	0xbf1242fa	-0.5713345
117	0xbeb19a63	-0.346881
118	0xbf0715b4	-0.5276749
119	0xbf03e63a	-0.5152317
120	0xbdd52790	-0.104079366
121	0xbf1540ac	-0.58301806
122	0xbe4de70b	-0.20107667
123	0xbe8238f9	-0.25434092
124	0xbe78b809	-0.24288954
125	0xbeb0d0a6	-0.34534186
126	0xbef4ecbf	-0.47836873
127	0xbdfd45df	-0.123668425
128	0xbebc11cc	-0.36732328
129	0xbe0190d6	-0.12652907
130	0xbed3d7c8	-0.41375566
131	0xbef94502	-0.4868546
132	0xbe3b3aaa	-0.18284097
133	0xbecf3518	-0.40470195
134	0xbef70c3d	-0.48251525
135	0xbe262d16	-0.16228136
136	0xbe8a18b2	-0.26971966
137	0xbeb7f49e	-0.35928816
138	0xbe015298	-0.12629163
139	0xbe2d2a31	-0.16910626
140	0xbec041a2	-0.37550074
141	0xbea62924	-0.32453263
142	0xbe561d11	-0.20909525
143	0xbe6e4016	-0.23266634
144	0xbe5d56a6	-0.21615085
145	0x3b7d3e9c	0.0038642054
146	0xbed48f42	-0.41515547
147	0xbeca875f	-0.39556405
148	0xbe3c7c56	-0.18406805
149	0xbee93bc3	-0.45553407
150	0xbeda423a	-0.42628652
151	0xbf0b168e	-0.5433129
152	0xbf33cdcc	-0.70235896
153	0xbefd0d7f	-0.4942436
154	0xbed9e62f	-0.4255843
155	0xbf0812b2	-0.53153527
156	0xbf0cf770	-0.5506506
157	0xbdb04ea8	-0.086087525
158	0xbf0c5307	-0.5481419
159	0xbe3f6eb3	-0.18694572
160	0xbf39e583	-0.7261583
161	0xbddb13c3	-0.106971286
162	0xbf0813f8	-0.5315547
163	0xbecff41f	-0.40615937
164	0xbed99db5	-0.42503133
165	0xbf04d087	-0.5188069
166	0xbe784812	-0.24246243
167	0xbe9369af	-0.28791568
168	0xbeba2308	-0.36354852
169	0xbe5a68bd	-0.21329017
170	0xbee78b45	-0.45223442
171	0xbed57308	-0.41689324
172	0xbe9c8f7f	-0.3057823
173	0xbe21f851	-0.15817381
174	0xbe9bf42e	-0.30459732
175	0xbf0d4123	-0.55177516
176	0xbedad30d	-0.42739144
177	0xbe5bb139	-0.21454324
178	0xbea993f5	-0.33120695
179	0xbef5cba8	-0.4800694
180	0xbf3f324a	-0.7468611
181	0xbeab324b	-0.33436808
182	0xbe2841a5	-0.16431291
183	0xbeb5eb50	-0.35531092
184	0xbec6e567	-0.38846895
185	0xbf0bff0c	-0.54686046
186	0xbee48ceb	-0.44638762
187	0xbec61d55	-0.38694254
188	0xbed2604f	-0.41089103
189	0xbedbdc57	-0.42941543
190	0xbeafe656	-0.3435542
191	0xbecacf40	-0.39611244
192	0xbe9923b8	-0.29910064
193	0xbeeae91a	-0.45880967
194	0xbe80b043	-0.25134477
195	0xbe5f7252	-0.21820953
196	0xbf1c83e7	-0.61138767
197	0xbef2a141	-0.47388652
198	0xbed3602d	-0.41284314
199	0xbea8f8db	-0.33002362

model.2.weight f4 [200]
0	0x400d4668	2.2074223
1	0x401431c6	2.315538
2	0x406c6659	3.6937468
3	0x402ab437	2.6672494
4	0x4023c691	2.5589945
5	0x4015b9a1	2.339455
6	0x402909d7	2.6412256
7	0x4026c373	2.6056793
8	0x4028fc69	2.640406
9	0x4043d1b8	3.0596752
10	0x40285d51	2.6306956
11	0x4011da20	2.2789383
12	0x4038ebb7	2.889387
13	0x402125a6	2.5179229
14	0x40419acd	3.0250733
15	0x4043e9df	3.0611494
16	0x4038ba63	2.8863761
17	0x400865b9	2.1312087
18	0x40169079	2.352568
19	0x40192ad8	2.39324
20	0x403cf744	2.952592
21	0x4038a003	2.8847663
22	0x401ff6d5	2.4994404
23	0x402c75f0	2.6946983
24	0x402b6839	2.6782362
25	0x402d0cd4	2.703908
26	0x402c974c	2.6967344
27	0x404a5fdf	3.1621015
28	0x4021c874	2.5278597
29	0x4037d65c	2.8724585
30	0x400c5b2b	2.1930645
31	0x404132e2	3.0187306
32	0x4012da95	2.2945912
33	0x403a0dfc	2.9071035
34	0x40426330	3.037304
35	0x40156da9	2.3348181
36	0x40231329	2.5480444
37	0x401f252d	2.486644
38	0x403e4d1a	2.973456
39	0x402c9342	2.696488
40	0x3ff316ef	1.8991374
41	0x4015c342	2.3400426
42	0x401a0366	2.4064574
43	0x40225e11	2.5369914
44	0x401baf70	2.4325829
45	0x400e7091	2.2256205
46	0x40451c21	3.0798419
47	0x4051f7b7	3.2807443
48	0x40399063	2.8994377
49	0x40259bf0	2.5876427
50	0x401f6434	2.490491
51	0x401abbde	2.4177165
52	0x4020e25c	2.5138159
53	0x4022e390	2.5451393
54	0x40320490	2.7815285
55	0x4014c0d8	2.3242702
56	0x402ff85b	2.7495334
57	0x40277198	2.6163082
58	0x400892ab	2.133952
59	0x4030adde	2.760612
60	0x401a02eb	2.406428
61	0x40499be0	3.1501389
62	0x402e3bed	2.7224076
63	0x401b827a	2.4298387
64	0x402cf346	2.7023482
65	0x4027ab4c	2.6198301
66	0x401bdd68	2.4353886
67	0x40236e41	2.5536044
68	0x401a10e1	2.4072802
69	0x40247bfb	2.5700672
70	0x402ca24b	2.6974056
71	0x4033d6ce	2.8099856
72	0x401f40f5	2.4883397
73	0x40214544	2.5198526
74	0x401bd801	2.4350588
75	0x403c3b43	2.941117
76	0x403268e6	2.7876525
77	0x400dd469	2.2160895
78	0x4007d40b	2.122317
79	0x40399bd4	2.900136
80	0x403c71e4	2.9444513
81	0x401b566b	2.4271495
82	0x401b9080	2.4306946
83	0x40251d7f	2.5799253
84	0x403ecc6c	2.981227
85	0x400dfaae	2.2184253
86	0x400c35cf	2.1907842
87	0x401b2240	2.4239655
88	0x400e6c3c	2.225356
89	0x40211fea	2.5175729
90	0x405381bb	3.3047931
91	0x40253ee5	2.5819638
92	0x4022a46e	2.541286
93	0x4027ba1e	2.6207347
94	0x403764ae	2.86552
95	0x4012080e	2.2817416
96	0x401e4670	2.4730492
97	0x4027d1c5	2.6221783
98	0x4069c726	3.65278
99	0x40452015	3.0800831
100	0x403f01e9	2.9844916
101	0x401370a9	2.3037512
102	0x401dba2d	2.4644883
103	0x403921ce	2.8926883
104	0x402b0f9d	2.672828
105	0x401a8d18	2.4148617
106	0x401e4b34	2.47334
107	0x40119e6c	2.2752943
108	0x401dd704	2.4662485
109	0x401f9b27	2.4938447
110	0x404110a3	3.0166404
111	0x40121aeb	2.282893
112	0x403b46a3	2.9261863
113	0x40194fea	2.3955026
114	0x402252ad	2.5362961
115	0x403299cf	2.7906377
116	0x4042471d	3.0355904
117	0x4034e135	2.8262455
118	0x404278da	3.0386262
119	0x403d0f7b	2.9540699
120	0x40203cb0	2.503704
121	0x40410edc	3.016532
122	0x4006a5ef	2.1038778
123	0x4016fc5e	2.3591533
124	0x40139b82	2.3063664
125	0x40191bab	2.3923137
126	0x400e85de	2.2269206
127	0x40389132	2.883862
128	0x40253483	2.58133
129	0x401210bd	2.2822716
130	0x4021f53e	2.5305934
131	0x4029b6e0	2.6517868
132	0x402eca5a	2.7311006
133	0x40260eac	2.5946455
134	0x4033eca2	2.811318
135	0x40195f52	2.396443
136	0x401b7a63	2.429345
137	0x404b1c59	3.1736052
138	0x40145c7a	2.3181443
139	0x4017c4b5	2.371381
140	0x400f8696	2.2425895
141	0x400de35f	2.2170026
142	0x4028c3df	2.636955
143	0x401e0a83	2.4693916
144	0x401b8663	2.4300773
145	0x401eddd8	2.4822903
146	0x40251026	2.5791106
147	0x4021f940	2.530838
148	0x3ffd93be	1.9810712
149	0x4026866f	2.6019552
150	0x4034f078	2.827177
151	0x403e24c4	2.970994
152	0x404d0c42	3.2038732
153	0x403b49a3	2.9263694
154	0x4020661c	2.5062323
155	0x403d8a60	2.9615707
156	0x403531d6	2.8311667
157	0x4022c824	2.5434656
158	0x402db37f	2.7140806
159	0x4009a991	2.1509745
160	0x403d41e7	2.9571474
161	0x401b082c	2.4223738
162	0x4033c1e6	2.8087096
163	0x4021405e	2.5195537
164	0x40092521	2.1428912
165	0x403f5fa8	2.9902134
166	0x401867e2	2.3813405
167	0x40480227	3.1251314
168	0x401f5e5f	2.490135
169	0x403fec82	2.9988103
170	0x402fcb19	2.746771
171	0x4033212f	2.7989004
172	0x4026dc4f	2.6071966
173	0x4021a91c	2.5259466
174	0x40155ef7	2.3339212
175	0x4018d42e	2.3879504
176	0x4027a054	2.6191607
177	0x401f571c	2.4896917
178	0x401e9f42	2.4784703
179	0x40224910	2.5357094
180	0x402ee1b3	2.7325256
181	0x40209bf9	2.5095198
182	0x4017ac8b	2.3699062
183	0x400ac490	2.1682472
184	0x403d681f	2.95948
185	0x403e2ad7	2.9713647
186	0x402d528b	2.708163
187	0x4027e4b0	2.623333
188	0x402cf7bb	2.7026203
189	0x402d3f52	2.7069898
190	0x400646b7	2.098066
191	0x4014d27c	2.325347
192	0x40266334	2.5998049
193	0x401e61ae	2.474712
194	0x40283b92	2.628636
195	0x40332fce	2.7997928
196	0x404233e3	3.034417
197	0x403cc798	2.9496822
198	0x402319d6	2.548452
199	0x4014f4cc	2.3274412

model.2.bias f4 [200]
0	0xbed3f6fa	-0.41399366
1	0x3fc53586	1.5406959
2	0x3f8d7d7a	1.1053917
3	0x3dda4a79	0.10658736
4	0x3eb2ca6e	0.34920067
5	0x3f917733	1.1364502
6	0x3f717868	0.9432435
7	0xbe819701	-0.2531052
8	0x3f62920f	0.8850412
9	0xbfb290fa	-1.3950493
10	0xbf47955a	-0.7796227
11	0x3f669810	0.9007578
12	0xbef9d5e5	-0.48796
13	0x3fa7a2c3	1.3096546
14	0xbf1dc497	-0.616281
15	0xbf97d3ef	-1.1861552
16	0xbf28a77c	-0.6588056
17	0xbe8cc514	-0.2749411
18	0x3f16d121	0.58912855
19	0xbfacb64c	-1.3493133
20	0xbf1046eb	-0.5635821
21	0xbfae2f25	-1.3608137
22	0xbfb9ce59	-1.4516097
23	0x3fcbc5dd	1.5919758
24	0x3e836599	0.2566345
25	0xbf0fe5e3	-0.56210154
26	0xbf5bcd88	-0.8586049
27	0xbf6d908d	-0.9279869
28	0x3f495f51	0.78661066
29	0xbfba70ae	-1.4565637
30	0x3f6f0064	0.9335997
31	0xbf26af61	-0.65111357
32	0x3f6f729c	0.93534255
33	0x3f69834e	0.9121598
34	0x3f367cf1	0.71284395
35	0x3f884f8f	1.0649279
36	0x3f563952	0.83681214
37	0x3f785be5	0.9701522
38	0xbf7bdd4c	-0.9838455
39	0x3f1bad87	0.60811657
40	0x3f8f4a07	1.1194466
41	0x3f753dc4	0.9579737
42	0x3e374f6e	0.17901394
43	0xbf5d90c6	-0.8654903
44	0xbeb3d50d	-0.35123482
45	0x3f642f6d	0.89134866
46	0xbfb1c834	-1.3889222
47	0xbf908212	-1.1289694
48	0xbfb23ce1	-1.3924829
49	0xbf31a6f6	-0.6939539
50	0x3f989322	1.1919901
51	0x3f0d7790	0.5526056
52	0x3fbdb180	1.4819794
53	0xbd8c55e8	-0.06852323
54	0xbf183dc3	-0.5946924
55	0xbe8e60cf	-0.27808234
56	0xbf52a195	-0.82277805
57	0xbf4a3b47	-0.789967
58	0x3f625e93	0.8842556
59	0xbf842bdc	-1.0325885
60	0x3f43f2af	0.7654218
61	0xbfb035d5	-1.3766428
62	0xbf52ba01	-0.8231507
63	0xbf069075	-0.52564174
64	0xbf0e67b4	-0.5562699
65	0xbfb9f606	-1.4528205
66	0x3edab823	0.4271861
67	0xbfbc30ee	-1.4702432
68	0xbfaaac5d	-1.3333851
69	0xbf3a223e	-0.727085
70	0xbf86c63e	-1.0529249
71	0xbf4ae00a	-0.79248106
72	0x3f3c063c	0.7344701
73	0xbf40acba	-0.7526356
74	0x3fb4ff20	1.4140358
75	0xbfd51f1f	-1.6650122
76	0xbf971754	-1.1803994
77	0x3e90593d	0.28193083
78	0x3f5042c1	0.8135186
79	0x3f2201f3	0.63284224
80	0xbfb59d6f	-1.418867
81	0x3f5ff776	0.8748697
82	0x3f637156	0.8884481
83	0xbf5e5cf0	-0.8686056
84	0xbf897be2	-1.0740931
85	0xbf87492c	-1.0569205
86	0x3f1e8b4a	0.6193129
87	0x3f64ba4b	0.8934676
88	0x3f8bf674	1.0934587
89	0x3f82dfab	1.0224508
90	0xbf957252	-1.1675513
91	0x3f9b5ce8	1.2137728
92	0xbfa26152	-1.268595
93	0xbfcd31a6	-1.6030777
94	0xbf9b2cc4	-1.2123036
95	0xbf4f2fed	-0.80932504
96	0x3f8af1c7	1.0855035
97	0xbf8b64dd	-1.0890156
98	0xbfb1304c	-1.3842864
99	0xbe44ed80	-0.19231224
100	0xbfbdd4b1	-1.4830533
101	0x3f3ccdbc	0.73751426
102	0x3f75319b	0.95778817
103	0xbf8d293b	-1.1028208
104	0xbe6f4aa6	-0.2336832
105	0xbf308040	-0.68945694
106	0xbecc542a	-0.39907962
107	0xbf19de30	-0.60104656
108	0x3f483342	0.78203213
109	0x3f576d19	0.84150845
110	0xbf8fa6c0	-1.1222763
111	0x3b1baaf2	0.0023753014
112	0xbe97099e	-0.29499525
113	0x3fa51793	1.2897819
114	0x3fa0c8b8	1.2561255
115	0xbfd0d1db	-1.6314043
116	0xbf9f880f	-1.2463397
117	0xbf96c496	-1.1778743
118	0xbe3c3e8b	-0.18383233
119	0xbfb07e7b	-1.3788599
120	0x3f96a609	1.176942
121	0xbf8a08cb	-1.0783933
122	0x3f2bbb32	0.6708251
123	0xbf98e277	-1.1944112
124	0x3f7cbf0d	0.9872902
125	0x3f80af01	1.0053407
126	0xbee51cad	-0.4474844
127	0x3fb7fcb1	1.437399
128	0xbf7d397a	-0.9891583
129	0x3f8eafa9	1.1147357
130	0x3f9920a2	1.1963084
131	0xbf11bc20	-0.5692768
132	0x3fb44ac2	1.4085314
133	0xbf672f86	-0.9030689
134	0xbf26dfa3	-0.6518499
135	0x3f46ed71	0.77706057
136	0x3f9a5df3	1.2059921
137	0xbee6f745	-0.45110527
138	0x3fc05179	1.5024863
139	0xbf074210	-0.5283518
140	0x3f6f50d5	0.93482715
141	0x3f80212a	1.0010121
142	0x3fb33ce6	1.400296
143	0x3fb0c069	1.3808719
144	0x3f6c5710	0.92320347
145	0x3fae5a19	1.3621246
146	0xbf8ea74b	-1.1144804
147	0xbf746270	-0.95462704
148	0x3f9a765d	1.2067372
149	0x3f6c86ac	0.9239299
150	0xbfab0718	-1.336154
151	0xbf7b69fb	-0.9820859
152	0xbf2d5e80	-0.6772232
153	0xbf5f8b4f	-0.87321943
154	0xbed9e7e0	-0.4255972
155	0xbf93f0ed	-1.15579
156	0xbf47d103	-0.780533
157	0x3fb36456	1.4014995
158	0xbf7764d0	-0.966382
159	0x3f6fa371	0.93608767
160	0xbf056d19	-0.52119595
161	0x3f93eace	1.1556032
162	0xbf928008	-1.1445322
163	0xbf44c69f	-0.7686557
164	0xbf510f50	-0.8166399
165	0xbfb6cb50	-1.4280796
166	0x3f9e28ab	1.2356161
167	0x3ed77d34	0.4208771
168	0x3f5d5325	0.86454993
169	0x3fd59b13	1.668795
170	0xbf65079a	-0.89464724
171	0xbf799173	-0.9748756
172	0x3faabab7	1.3338231
173	0x3fac1e23	1.3446697
174	0x3f59c372	0.8506385
175	0xbfcf3600	-1.6188354
176	0xbf4dd5fc	-0.8040464
177	0x3f97e4fb	1.1866754
178	0x3f54edfa	0.83175623
179	0xbfa48bf8	-1.2855215
180	0xbef21ef4	-0.4728924
181	0xbf5f87f3	-0.8731682
182	0x3fba1ce8	1.4540071
183	0x3f8dac82	1.106827
184	0xbf9a199f	-1.2039069
185	0xbf8cccd1	-1.1000005
186	0xbfaf77ee	-1.3708475
187	0xbf8cce1e	-1.1000402
188	0xbf4123f3	-0.7544548
189	0xbf0fe0fc	-0.56202674
190	0xbeae6b80	-0.3406639
191	0x3f6fdaa0	0.9369297
192	0x3f7cbc57	0.98724884
193	0xbee8f579	-0.4549978
194	0x3f9bb8e9	1.2165805
195	0x3fb63161	1.4233819
196	0xbfa8b97c	-1.3181605
197	0xbf6139fa	-0.8797909
198	0x3f1e9e78	0.61960554
199	0x3e2e5e66	0.17028198

model.3.weight f4 [784, 200]
0	0x3e0fbb7c	0.14036363
1	0xbc2b380a	-0.0104503725
2	0xbe483c5e	-0.19554278
3	0x3e3cfe00	0.18456268
4	0x3d8a2521	0.06745363
5	0xbcd2eb01	-0.025746824
6	0xbe2e6f3b	-0.17034619
7	0xbdccc9ea	-0.099994496
8	0xbde6c1be	-0.11267422
9	0x3e329066	0.17437896
10	0x3e62f278	0.22162807
11	0xbdd6e806	-0.10493474
12	0xbca1e81c	-0.019763999
13	0xbdf44c92	-0.11928667
14	0x3e7450a3	0.23858885
15	0x3e81f2f1	0.25380662
16	0x3e597148	0.2123462
17	0x3c159cc6	0.009131616
18	0xbdded74c	-0.10880908
19	0x3e82ac8d	0.2552227
20	0x3e0cc2b0	0.13746142
21	0x3e70da11	0.23520686
22	0x3eb2985d	0.3488187
23	0xbd8b97a7	-0.06816035
24	0xbdb75fc6	-0.08953814
25	0x3e591f0f	0.21203254
26	0x3d1df88d	0.038567115
27	0x3e47408e	0.1945822
28	0xbe1370e7	-0.14398538
29	0x3e466db1	0.19377781
30	0xbdd0bf16	-0.10192697
31	0x3e167108	0.14691556
32	0xbd3041c7	-0.04303148
33	0xbdbcf2cb	-0.092259966
34	0xbe61c63a	-0.22048274
35	0xbce54d9b	-0.027991107
36	0xbdc8a4dc	-0.097970694
37	0xbe107fca	-0.14111248
38	0x3e73f733	0.23824768
39	0xbe0b5593	-0.13606863
40	0xbde98840	-0.11402941
41	0xbd8cf289	-0.068821974
42	0xbe2111e4	-0.15729481
43	0x3e4af2c4	0.1981917
44	0xbcd1f14f	-0.02562776
45	0xbe375cf5	-0.17906554
46	0x3e5174c5	0.204547
47	0x3e64a447	0.22328292
48	0x3e786e75	0.24260886
49	0x3db99d9c	0.09063265
50	0xbd7c60f1	-0.061615888
51	0xbdf6e207	-0.1205483
52	0xbdbf75cb	-0.09348639
53	0xbcfdc086	-0.030975591
54	0x3e4f5122	0.20245793
55	0x3d63e7c9	0.05564097
56	0x3de9321b	0.1138651
57	0x3df0050d	0.11719713
58	0xbdaff234	-0.085911185
59	0x3e256006	0.16149911
60	0xbdecfdad	-0.11571822
61	0x3e81e104	0.25366986
62	0x3dd8af31	0.1058029
63	0xbd48a77f	-0.04898786
64	0x3d341f11	0.04397494
65	0x3e87bcb0	0.26511145
66	0xbd3fe525	-0.04684939
67	0x3e7634e6	0.24043617
68	0x3e97e445	0.29666343
69	0x3e109ed9	0.14123096
70	0x3e452e11	0.19255854
71	0x3ddc669e	0.1076176
72	0xbdfbfd29	-0.12304146
73	0x3df61462	0.120156065
74	0xbd3fcd25	-0.0468265
75	0x3e96ccb6	0.29453057
76	0x3df9e544	0.12201932
77	0x3dc0305a	0.09384222
78	0xbd33609b	-0.043793302
79	0xbda88b61	-0.082297094
80	0x3e5c4247	0.21509658
81	0xbde78ddb	-0.11306354
82	0xbe15c7b3	-0.1462696
83	0x3d9f4948	0.07777649
84	0x3e648a45	0.2231837
85	0x3e88dee8	0.26732564
86	0xbce36051	-0.027755888
87	0xbe23bab0	-0.15989184
88	0xbd16c7b9	-0.036811564
89	0xbe634270	-0.22193313
90	0x3e9d61ab	0.30738577
91	0x3bf4adbc	0.007467
92	0x3e77db29	0.24204697
93	0x3e90b92f	0.28266284
94	0x3ea87822	0.32904154
95	0x3e8dec01	0.2771912
96	0xbdcfef56	-0.101530716
97	0x3e81c6bb	0.25346932
98	0x3e29b3f1	0.16572548
99	0x3e4edebd	0.20202155
100	0x3e609949	0.21933474
101	0x3cadd2bf	0.021218656
102	0xbe0ac996	-0.13553461
103	0x3e3c6d80	0.18401146
104	0xbb5947f9	-0.0033154471
105	0x3de2145c	0.110390395
106	0xbd1e2092	-0.03860528
107	0x3e0578eb	0.13034408
108	0xbe33e078	-0.17566097
109	0xbddb817a	-0.10718055
110	0x3e82f70b	0.25579104
111	0xbc123658	-0.008924089
112	0x3dcd3999	0.100207515
113	0xbd65981d	-0.05605327
114	0xbe89825f	-0.26857278
115	0x3e92c1d3	0.286635
116	0x3e58843b	0.21144192
117	0x3e83e2e2	0.25759035
118	0x3b7ea735	0.0038856987
119	0x3e6dd460	0.23225546
120	0xbd36d500	-0.044636726
121	0x3e81b1df	0.25331017
122	0xbd9dc89e	-0.0770428
123	0x3e822c17	0.25424263
124	0xbe208942	-0.1567736
125	0xbe1dc58b	-0.15407388
126	0x3ddb7da8	0.107173264
127	0xbe1e26df	-0.15444516
128	0x3ab9a3c3	0.0014163185
129	0xbe2058bc	-0.1565885
130	0xbdd0747e	-0.10178469
131	0x3dce9661	0.10087276
132	0xbde56035	-0.11199991
133	0x3e9780ac	0.29590356
134	0x3e04d900	0.12973404
135	0xbe08adcd	-0.1334755
136	0xbdcc266a	-0.099682644
137	0x3e0c17c7	0.13680945
138	0xbdb67366	-0.08908729
139	0x3e23f596	0.16011652
140	0xbe48a0f5	-0.1959265
141	0xbe41b573	-0.18916874
142	0xbd9a8b2c	-0.07546076
143	0xbbb6c520	-0.0055776983
144	0xbd4b985a	-0.04970584
145	0xbe0aac36	-0.13542256
146	0x3e035a56	0.12827429
147	0x3e4c0d73	0.19927005
148	0xbe1be65e	-0.15224597
149	0xbd93bc41	-0.07213641
150	0x3e8022c6	0.2502653
151	0x3e0e9cc0	0.13926983
152	0x3e1f24ef	0.15541433
153	0x3e77ee83	0.24212079
154	0x3d2d381d	0.042289842
155	0x3e98f60d	0.29875222
156	0x3e988790	0.29790926
157	0xbdd259d0	-0.102710366
158	0x3e765be0	0.24058485
159	0xbe772b72	-0.24137667
160	0x3dfcf239	0.12350888
161	0xbd20eab5	-0.039286334
162	0x3e612519	0.21986808
163	0x3d29b947	0.04143646
164	0x3e1ce4e3	0.15321688
165	0x3eabcd0c	0.33554876
166	0xbe09ab45	-0.1344424
167	0x3c9993bc	0.018747203
168	0xbe3832c9	-0.17988123
169	0xbdfe4b24	-0.12416676
170	0x3e790afc	0.24320596
171	0x3e88bd3c	0.26706874
172	0xbdeba1fa	-0.11505504
173	0xbe097ee1	-0.13427307
174	0xbdc6f8ff	-0.09715461
175	0x3ea866d4	0.32890952
176	0x3d884f03	0.06655695
177	0xbdf086d2	-0.11744465
178	0xbde0ea1a	-0.10982151
179	0x3e578a58	0.21048868
180	0x3d931d29	0.07183296
181	0x3e8a8053	0.2705103
182	0xbddfc872	-0.10926904
183	0xbdd76d8d	-0.10518942
184	0x3e74307b	0.23846619
185	0x3e557c0f	0.20848106
186	0x3e9683fe	0.29397577
187	0x3e5b45f7	0.21413408
188	0x3e504af7	0.20341097
189	0x3b4e1d04	0.00314504
190	0x3ceb0bb9	0.028692113
191	0xbd7ca294	-0.061678484
192	0xbe217b17	-0.15769611
193	0x3e109d85	0.14122589
194	0xbd65bcfb	-0.05608843
195	0xbe36dc02	-0.17857364
196	0x3e8d788c	0.27631032
197	0x3c4b7890	0.012418881
198	0xbdc01e78	-0.093808115
199	0xbdee9f0e	-0.11651431
200	0x3de3ff2f	0.11132657
201	0xbd949e51	-0.07256759
202	0xbe2afc75	-0.16697867
203	0x3e063b9c	0.13108677
204	0x3e1e10ce	0.15436098
205	0x3bb3f788	0.0054921545
206	0xbe21dea2	-0.15807584
207	0xbded1fd6	-0.11578338
208	0xbe41ebe5	-0.18937643
209	0x3e546e67	0.2074524
210	0x3e011eb6	0.12609372
211	0xbde40254	-0.111332566
212	0x3d43304d	0.047653485
213	0xbdd86600	-0.1056633
214	0x3e567549	0.20943178
215	0x3e6be08b	0.23034875
216	0x3e4a0ed8	0.19732225
217	0x3ca20d6c	0.01978179
218	0xbe44f0c1	-0.19232465
219	0x3e9892c4	0.29799473
220	0x3de599b6	0.11210959
221	0x3e720bc3	0.23637299
222	0x3e9170cb	0.28406367
223	0xbd8b6c2d	-0.06807742
224	0xbdb23697	-0.087018184
225	0x3e7d2e8a	0.24724784
226	0x3da1cda5	0.07900552
227	0x3e1d428d	0.15357418
228	0xbe207991	-0.15671374
229	0x3e90d5ef	0.28288218
230	0xbe1eca1b	-0.15506785
231	0x3e5604db	0.2090029
232	0xbc47b3d9	-0.012188875
233	0xbdceef4e	-0.101042375
234	0xbe5375d9	-0.20650424
235	0xbb1ea324	-0.0024206126
236	0x3be600fb	0.00701916
237	0xbdf24541	-0.118296154
238	0x3e0ae539	0.13564004
239	0xbe28b5d8	-0.16475618
240	0xbe02545b	-0.12727492
241	0xbdd94c39	-0.106102414
242	0xbdf15fb3	-0.11785831
243	0x3e53671a	0.20644799
244	0x3ab3fb28	0.0013731467
245	0xbdba1af1	-0.0908717
246	0x3e8e0d90	0.27744722
247	0x3e73f104	0.23822409
248	0x3e845221	0.2584391
249	0x3d441d7a	0.047879674
250	0x3c0cbf78	0.008590572
251	0xbd9ca81f	-0.07649254
252	0xbdfca435	-0.123360075
253	0xbca57834	-0.020198919
254	0x3e28e5ad	0.16493864
255	0x3ca5dd20	0.020247042

model.3.bias f4 [784]
0	0xbe8f7509	-0.28018978
1	0xbe92c1ec	-0.28663576
2	0xbec9a68b	-0.39384875
3	0xbec5fdc5	-0.38670173
4	0xbed0b591	-0.40763524
5	0xbea3e3e0	-0.32009792
6	0xbecac56c	-0.39603746
7	0xbe9afca7	-0.30270883
8	0xbedfe391	-0.43728307
9	0xbe92cabe	-0.28670305
10	0xbea3a4f8	-0.319618
11	0xbec153b2	-0.37759167
12	0xbe8311fb	-0.25599656
13	0xbe86903e	-0.26281923
14	0xbebbcb0f	-0.3667836
15	0xbeb0a585	-0.3450128
16	0xbebd2ebe	-0.36949724
17	0xbed7fb24	-0.42183793
18	0xbe9665af	-0.29374453
19	0xbed095b4	-0.40739214
20	0xbe8ea121	-0.27857307
21	0xbed7301f	-0.420289
22	0xbea473e6	-0.32119673
23	0xbec47497	-0.383702
24	0xbea0ef44	-0.31432545
25	0xbea9d55f	-0.33170602
26	0xbe9db30a	-0.30800658
27	0xbe989533	-0.2980133
28	0xbeaacc24	-0.33358872
29	0xbec340f8	-0.38135505
30	0xbe94cc84	-0.29062283
31	0xbea4a352	-0.32155854
32	0xbe6afe56	-0.22948584
33	0xbeba0002	-0.3632813
34	0xbeaa182c	-0.33221567
35	0xbec0f27e	-0.37685007
36	0xbeb517b0	-0.35369635
37	0xbe3729d3	-0.17887048
38	0xbe8f5972	-0.2799793
39	0xbe698445	-0.22804363
40	0xbe65c09d	-0.22436757
41	0xbe47ce78	-0.19512355
42	0xbe17f840	-0.14840794
43	0xbe3c9d68	-0.1841942
44	0xbe6cd729	-0.23128952
45	0xbe0034f3	-0.12520199
46	0xbe8ea488	-0.27859902
47	0xbe2b39b6	-0.16721234
48	0xbea96842	-0.33087355
49	0xbe8172b4	-0.25282824
50	0xbea4b448	-0.32168794
51	0xbeab2c61	-0.33432296
52	0xbea9c6c0	-0.33159447
53	0xbea379c8	-0.3192885
54	0xbe97aab1	-0.29622415
55	0xbed254b6	-0.41080254
56	0xbe930aef	-0.2871928
57	0xbebe30fb	-0.37146744
58	0xbea944b4	-0.3306023
59	0xbeb5f727	-0.35540125
60	0xbe602cb4	-0.21892053
61	0xbe7d3350	-0.24726605
62	0xbeb78f68	-0.35851598
63	0xbe95915b	-0.2921246
64	0xbe0d46b1	-0.13796498
65	0xbe34b17b	-0.17645828
66	0xbd138bfd	-0.036022175
67	0xbe5afb38	-0.21384895
68	0xbe6d5555	-0.23177083
69	0xbe4fc7e7	-0.202911
70	0xbe96ac7f	-0.2942848
71	0xbe3511b1	-0.1768253
72	0xbeb0d30e	-0.34536022
73	0xbeaa0a70	-0.33211088
74	0xbea732d0	-0.32655954
75	0xbe9c58db	-0.3053654
76	0xbe984970	-0.29743528
77	0xbe4d22f6	-0.20032868
78	0xbe8db76d	-0.27679005
79	0xbe464fbd	-0.19366355
80	0xbe5dad74	-0.21648198
81	0xbec756a5	-0.38933292
82	0xbe5c0c94	-0.21489173
83	0xbea8970b	-0.32927737
84	0xbe94994e	-0.29023212
85	0xbed49d22	-0.41526133
86	0xbe97ebc3	-0.2967206
87	0xbe409a4e	-0.18808863
88	0xbe67fc9d	-0.22654958
89	0xbe7b63a4	-0.24549729
90	0xbe119964	-0.1421867
91	0xbe0f188d	-0.13974209
92	0xbd73bafa	-0.059504487
93	0xbe685fec	-0.22692841
94	0xbe2482f5	-0.16065581
95	0xbe62b34c	-0.22138709
96	0xbe9e06f1	-0.3086467
97	0xbe754bf5	-0.23954757
98	0xbea3754d	-0.3192543
99	0xbe50e54b	-0.20399968
100	0xbe91d333	-0.28481445
101	0xbe8b0ef9	-0.2715986
102	0xbe781d39	-0.24229898
103	0xbeaf200b	-0.34204134
104	0xbe59779d	-0.21237035
105	0xbe141835	-0.14462359
106	0xbe07d6ad	-0.13265486
107	0xbdd3289d	-0.10310481
108	0xbe35c9d6	-0.17752776
109	0xbea079dc	-0.3134297
110	0xbec43577	-0.3832204
111	0xbeb4acf3	-0.352882
112	0xbe8f9881	-0.2804604
113	0xbeb6fd86	-0.35740298
114	0xbe93c943	-0.28864488
115	0xbe4ca51b	-0.19984858
116	0xbe4e5450	-0.2014935
117	0xbde644a4	-0.11243561
118	0xbe1c6f38	-0.15276802
119	0xbdeba2e8	-0.11505681
120	0xbd61dd1f	-0.055142518
121	0xbe37f71a	-0.17965356
122	0xbe0eae6b	-0.13933723
123	0xbd9d90a2	-0.07693602
124	0xbe24d3a5	-0.16096361
125	0xbe1ff58e	-0.15621015
126	0xbe008352	-0.12550095
127	0xbe2a638e	-0.1663954
128	0xbe8099a8	-0.2511723
129	0xbe4524e7	-0.19252358
130	0xbe1d11f4	-0.1533888
131	0xbe437845	-0.19088848
132	0xbdc33667	-0.09531861
133	0xbe35468e	-0.17702696
134	0xbdce8c76	-0.100853845
135	0xbdd94717	-0.106092624
136	0xbdec7eea	-0.115476444
137	0xbe436820	-0.1908269
138	0xbe94516a	-0.28968364
139	0xbe9fb578	-0.31193137
140	0xbed30220	-0.4121256
141	0xbebebcc2	-0.37253386
142	0xbea4b9dc	-0.3217305
143	0xbe7aa1e5	-0.2447582
144	0xbdbd4f7b	-0.09243675
145	0xbe3ed243	-0.18634896
146	0xbe1671eb	-0.14691894
147	0xbe29f049	-0.16595568
148	0xbdcd52b8	-0.10025543
149	0xbde2f127	-0.110811524
150	0xbd24ebeb	-0.04026405
151	0xbe187240	-0.14887333
152	0xbd13c703	-0.036078464
153	0xbce0c4a3	-0.027437514
154	0x3d408383	0.04700042
155	0xbd94f52b	-0.072733246
156	0xbd44882b	-0.047981422
157	0x3dae07cc	0.08497581
158	0xbd5d9a80	-0.05410242
159	0xbdcf5615	-0.10123841
160	0xbdde4ca8	-0.10854465
161	0xbe207b3b	-0.15672009
162	0xbe00347a	-0.12520018
163	0xbded8630	-0.1159786
164	0xbe2f9133	-0.17145233
165	0xbe0ff3a9	-0.14057793
166	0xbe8cf5da	-0.2753132
167	0xbe935dc6	-0.2878248
168	0xbe94e674	-0.29082072
169	0xbe98ac77	-0.2981908
170	0xbe89a596	-0.26884145
171	0xbdd2863b	-0.10279509
172	0xbe3b6722	-0.18301061
173	0xbe1c5da1	-0.15270092
174	0xbe178358	-0.14796197
175	0xbdab132a	-0.08353265
176	0xbd60f9d8	-0.05492577
177	0xbcd92499	-0.026506709
178	0xbd833b83	-0.06407835
179	0x3d278325	0.040896554
180	0x3d304e23	0.043043267
181	0xbd7b03e4	-0.061283007
182	0x3cc236cc	0.02370777
183	0xbe33466b	-0.17507331
184	0xbe694507	-0.22780238
185	0xbd90ce2f	-0.070705764
186	0x3c0a5087	0.008442051
187	0xbc6ded5f	-0.014521926
188	0x3d667243	0.056261312
189	0xbd09a272	-0.033602186
190	0xbcc20340	-0.02368319
191	0x3cd766a7	0.026294066
192	0xbe538083	-0.20654492
193	0xbe09af46	-0.13445768
194	0xbe125038	-0.14288414
195	0xbe7f850e	-0.249531
196	0xbe9705d1	-0.29496625
197	0xbeaba102	-0.33521277
198	0xbe6e8027	-0.23291074
199	0xbe25d90e	-0.16196081
200	0xbd765f81	-0.060149673
201	0xbe09e9ee	-0.13468143
202	0xbe072d12	-0.13200787
203	0xbdafaead	-0.08578239
204	0xbd3339b7	-0.043756213
205	0xbdd33664	-0.103131086
206	0x3c351c3f	0.011054098
207	0xbcf3c82a	-0.029758532
208	0xbda05876	-0.078293726
209	0x3ccee284	0.025254495
210	0x3c32644c	0.01088817
211	0x3d2d9a64	0.042383566
212	0x3a364899	0.0006953567
213	0x3c13fecb	0.009032915
214	0xbcdd871e	-0.027041968
215	0x3c7449b0	0.014910147
216	0xbd5c9d4d	-0.05386095
217	0xbd1d0566	-0.038335226
218	0xbd50168b	-0.05080275
219	0xbd26eeb7	-0.040755
220	0xbdd1ef47	-0.10250717
221	0xbe293621	-0.16524555
222	0xbdcaa96d	-0.09895597
223	0xbea7a5bf	-0.32743642
224	0xbeb42366	-0.35183257
225	0xbe641bd2	-0.22276238
226	0xbe295807	-0.16537486
227	0xbda290af	-0.079377525
228	0xbd71ac25	-0.05900206
229	0x3d38365a	0.04497371
230	0xbd992061	-0.07476879
231	0xbd4c7d68	-0.049924284
232	0xbda3f29f	-0.08005261
233	0xbdbdfa22	-0.09276225
234	0xbdee942e	-0.11649357
235	0x3d81e04a	0.06341608
236	0xbc77b398	-0.015118502
237	0x3cf8d168	0.03037329
238	0x3d806d0c	0.06270799
239	0xbcd315a7	-0.02576716
240	0x3c0c2fe6	0.008556342
241	0xbbeb23b2	-0.007175886
242	0x3e04cd79	0.12969007
243	0xbcd73ee5	-0.026275108
244	0x3c466bef	0.012110694
245	0x3cc30f1f	0.023810921
246	0x3c7cebaf	0.015437051
247	0xbd81241d	-0.06305716
248	0xbe305247	-0.17218886
249	0xbe89b581	-0.2689629
250	0xbddd31ec	-0.108005375
251	0xbe74b2e3	-0.23896365
252	0xbe83098e	-0.25593227
253	0xbe48fe66	-0.19628295
254	0xbe239d62	-0.15978006
255	0xbe332c92	-0.17497471
